Using TensorFlow backend.

/opt/conda/lib/python3.6/site-packages/sklearn/preprocessing/data.py:164: UserWarning: Numerical issues were encountered when centering the data and might not be solved. Dataset may contain too large values. You may need to prescale your features.
  warnings.warn("Numerical issues were encountered "

_________________________________________________________________
Layer (type)                 Output Shape              Param #   
=================================================================
dense_1 (Dense)              (None, 50)                1000      
_________________________________________________________________
batch_normalization_1 (Batch (None, 50)                200       
_________________________________________________________________
dropout_1 (Dropout)          (None, 50)                0         
_________________________________________________________________
dense_2 (Dense)              (None, 50)                2550      
_________________________________________________________________
batch_normalization_2 (Batch (None, 50)                200       
_________________________________________________________________
dropout_2 (Dropout)          (None, 50)                0         
_________________________________________________________________
dense_3 (Dense)              (None, 50)                2550      
_________________________________________________________________
batch_normalization_3 (Batch (None, 50)                200       
_________________________________________________________________
dropout_3 (Dropout)          (None, 50)                0         
_________________________________________________________________

dense_4 (Dense)              (None, 1)                 51        
=================================================================
Total params: 6,751
Trainable params: 6,451
Non-trainable params: 300
_________________________________________________________________



Train on 19451 samples, validate on 2162 samples

Epoch 1/1000


  200/19451 [..............................] - ETA: 1:54 - loss: 3.4745 - mean_squared_error: 3.4745

 2400/19451 [==>...........................] - ETA: 8s - loss: 2.7642 - mean_squared_error: 2.7642  
…
